…
2025-08-06 16:16:13,251 INFO: Dataset [PairedImageDataset] - Set5 is built.
2025-08-06 16:16:13,252 INFO: Number of val images/folders in Set5: 5
2025-08-06 16:16:13,252 INFO: Dataset [PairedImageDataset] - Set14 is built.
2025-08-06 16:16:13,252 INFO: Number of val images/folders in Set14: 14
2025-08-06 16:16:13,257 INFO: Dataset [PairedImageDataset] - BSD100 is built.
2025-08-06 16:16:13,257 INFO: Number of val images/folders in BSD100: 100
2025-08-06 16:16:13,583 INFO: Network [PFT] is created.
2025-08-06 16:16:13,956 INFO: Network: DistributedDataParallel - PFT, with parameters: 19,623,527
2025-08-06 16:16:13,956 INFO: PFT(
  (conv_first): Conv2d(3, 240, kernel_size=(3, 3), stride=(1, 1), padding=(1, 1))
  (patch_embed): PatchEmbed(
    (norm): LayerNorm((240,), eps=1e-05, elementwise_affine=True)
  )
  (patch_unembed): PatchUnEmbed()
  (layers): ModuleList(
    (0-2): 3 x PFTB(
      (patch_embed): PatchEmbed()
      (patch_unembed): PatchUnEmbed()
      (residual_group): BasicBlock(
        dim=240, input_resolution=(64, 64), depth=4
        (layers): ModuleList(
          (0-3): 4 x PFTransformerLayer(
            (softmax): Softmax(dim=-1)
            (lrelu): LeakyReLU(negative_slope=0.01)
            (sigmoid): Sigmoid()
            (norm1): LayerNorm((240,), eps=1e-05, elementwise_affine=True)
            (norm2): LayerNorm((240,), eps=1e-05, elementwise_affine=True)
            (wqkv): Linear(in_features=240, out_features=720, bias=True)
            (v_LePE): dwconv(
              (depthwise_conv): Sequential(
                (0): Conv2d(240, 240, kernel_size=(7, 7), stride=(1, 1), padding=(3, 3), groups=240)
                (1): GELU(approximate='none')
              )
            )
            (attn_win): WindowAttention(
              dim=240, window_size=(32, 32), num_heads=6, qkv_bias=True
              (proj): Linear(in_features=240, out_features=240, bias=True)
              (softmax): Softmax(dim=-1)
            )
            (convffn): ConvFFN(
              (fc1): Linear(in_features=240, out_features=480, bias=True)
              (act): GELU(approximate='none')
              (dwconv): dwconv(
                (depthwise_conv): Sequential(
                  (0): Conv2d(480, 480, kernel_size=(7, 7), stride=(1, 1), padding=(3, 3), groups=480)
                  (1): GELU(approximate='none')
                )
              )
              (fc2): Linear(in_features=480, out_features=240, bias=True)
            )
          )
        )
      )
      (conv): Conv2d(240, 240, kernel_size=(3, 3), stride=(1, 1), padding=(1, 1))
    )
    (3-5): 3 x PFTB(
      (patch_embed): PatchEmbed()
      (patch_unembed): PatchUnEmbed()
      (residual_group): BasicBlock(
        dim=240, input_resolution=(64, 64), depth=6
        (layers): ModuleList(
          (0-5): 6 x PFTransformerLayer(
            (softmax): Softmax(dim=-1)
            (lrelu): LeakyReLU(negative_slope=0.01)
            (sigmoid): Sigmoid()
            (norm1): LayerNorm((240,), eps=1e-05, elementwise_affine=True)
            (norm2): LayerNorm((240,), eps=1e-05, elementwise_affine=True)
            (wqkv): Linear(in_features=240, out_features=720, bias=True)
            (v_LePE): dwconv(
              (depthwise_conv): Sequential(
                (0): Conv2d(240, 240, kernel_size=(7, 7), stride=(1, 1), padding=(3, 3), groups=240)
                (1): GELU(approximate='none')
              )
            )
            (attn_win): WindowAttention(
              dim=240, window_size=(32, 32), num_heads=6, qkv_bias=True
              (proj): Linear(in_features=240, out_features=240, bias=True)
              (softmax): Softmax(dim=-1)
            )
            (convffn): ConvFFN(
              (fc1): Linear(in_features=240, out_features=480, bias=True)
              (act): GELU(approximate='none')
              (dwconv): dwconv(
                (depthwise_conv): Sequential(
                  (0): Conv2d(480, 480, kernel_size=(7, 7), stride=(1, 1), padding=(3, 3), groups=480)
                  (1): GELU(approximate='none')
                )
              )
              (fc2): Linear(in_features=480, out_features=240, bias=True)
            )
          )
        )
      )
      (conv): Conv2d(240, 240, kernel_size=(3, 3), stride=(1, 1), padding=(1, 1))
    )
  )
  (norm): LayerNorm((240,), eps=1e-05, elementwise_affine=True)
  (conv_after_body): Conv2d(240, 240, kernel_size=(3, 3), stride=(1, 1), padding=(1, 1))
  (conv_before_upsample): Sequential(
    (0): Conv2d(240, 64, kernel_size=(3, 3), stride=(1, 1), padding=(1, 1))
    (1): LeakyReLU(negative_slope=0.01, inplace=True)
  )
  (upsample): Upsample(
    (0): Conv2d(64, 256, kernel_size=(3, 3), stride=(1, 1), padding=(1, 1))
    (1): PixelShuffle(upscale_factor=2)
  )
  (conv_last): Conv2d(64, 3, kernel_size=(3, 3), stride=(1, 1), padding=(1, 1))
)
2025-08-06 16:16:13,959 INFO: Use Exponential Moving Average with decay: 0.999
2025-08-06 16:16:14,211 INFO: Network [PFT] is created.
2025-08-06 16:16:14,289 INFO: Loss [L1Loss] is created.
2025-08-06 16:16:14,292 INFO: Model [PFTModel] is created.
2025-08-06 16:16:18,040 INFO: Use cuda prefetch dataloader
2025-08-06 16:16:18,041 INFO: Start training from epoch: 0, iter: 0
…
