…
        type: calculate_psnr
        crop_border: 2
        test_y_channel: True
      ]
      ssim:[
        type: calculate_ssim
        crop_border: 2
        test_y_channel: True
      ]
    ]
  ]
  dist: False
  rank: 0
  world_size: 1
  auto_resume: False
  is_train: False

2025-09-09 11:01:37,977 INFO: Dataset [PairedImageDataset] - MonashTest is built.
2025-09-09 11:01:37,978 INFO: Number of test images in MonashTest: 450
2025-09-09 11:01:38,111 INFO: Network [PFT] is created.
2025-09-09 11:01:38,266 INFO: Network: PFT, with parameters: 5,452,727
2025-09-09 11:01:38,267 INFO: PFT(
  (conv_first): Conv2d(3, 120, kernel_size=(3, 3), stride=(1, 1), padding=(1, 1))
  (patch_embed): PatchEmbed(
    (norm): LayerNorm((120,), eps=1e-05, elementwise_affine=True)
  )
  (patch_unembed): PatchUnEmbed()
  (layers): ModuleList(
    (0): PFTB(
      (patch_embed): PatchEmbed()
      (patch_unembed): PatchUnEmbed()
      (residual_group): BasicBlock(
        dim=120, input_resolution=(64, 64), depth=2
        (layers): ModuleList(
          (0-1): 2 x PFTransformerLayer(
            (softmax): Softmax(dim=-1)
            (lrelu): LeakyReLU(negative_slope=0.01)
            (sigmoid): Sigmoid()
            (norm1): LayerNorm((120,), eps=1e-05, elementwise_affine=True)
            (norm2): LayerNorm((120,), eps=1e-05, elementwise_affine=True)
            (wqkv): Linear(in_features=120, out_features=360, bias=True)
            (v_LePE): dwconv(
              (depthwise_conv): Sequential(
                (0): Conv2d(120, 120, kernel_size=(7, 7), stride=(1, 1), padding=(3, 3), groups=120)
                (1): GELU(approximate='none')
              )
            )
            (attn_win): WindowAttention(
              dim=120, window_size=(32, 32), num_heads=5, qkv_bias=True
              (proj): Linear(in_features=120, out_features=120, bias=True)
              (softmax): Softmax(dim=-1)
            )
            (convffn): ConvFFN(
              (fc1): Linear(in_features=120, out_features=240, bias=True)
              (act): GELU(approximate='none')
              (dwconv): dwconv(
                (depthwise_conv): Sequential(
                  (0): Conv2d(240, 240, kernel_size=(7, 7), stride=(1, 1), padding=(3, 3), groups=240)
                  (1): GELU(approximate='none')
                )
              )
              (fc2): Linear(in_features=240, out_features=120, bias=True)
            )
          )
        )
      )
      (conv): Conv2d(120, 120, kernel_size=(3, 3), stride=(1, 1), padding=(1, 1))
    )
    (1-2): 2 x PFTB(
      (patch_embed): PatchEmbed()
      (patch_unembed): PatchUnEmbed()
      (residual_group): BasicBlock(
        dim=120, input_resolution=(64, 64), depth=4
        (layers): ModuleList(
          (0-3): 4 x PFTransformerLayer(
            (softmax): Softmax(dim=-1)
            (lrelu): LeakyReLU(negative_slope=0.01)
            (sigmoid): Sigmoid()
            (norm1): LayerNorm((120,), eps=1e-05, elementwise_affine=True)
            (norm2): LayerNorm((120,), eps=1e-05, elementwise_affine=True)
            (wqkv): Linear(in_features=120, out_features=360, bias=True)
            (v_LePE): dwconv(
              (depthwise_conv): Sequential(
                (0): Conv2d(120, 120, kernel_size=(7, 7), stride=(1, 1), padding=(3, 3), groups=120)
                (1): GELU(approximate='none')
              )
            )
            (attn_win): WindowAttention(
              dim=120, window_size=(32, 32), num_heads=5, qkv_bias=True
              (proj): Linear(in_features=120, out_features=120, bias=True)
              (softmax): Softmax(dim=-1)
            )
            (convffn): ConvFFN(
              (fc1): Linear(in_features=120, out_features=240, bias=True)
              (act): GELU(approximate='none')
              (dwconv): dwconv(
                (depthwise_conv): Sequential(
                  (0): Conv2d(240, 240, kernel_size=(7, 7), stride=(1, 1), padding=(3, 3), groups=240)
                  (1): GELU(approximate='none')
                )
              )
              (fc2): Linear(in_features=240, out_features=120, bias=True)
            )
          )
        )
      )
      (conv): Conv2d(120, 120, kernel_size=(3, 3), stride=(1, 1), padding=(1, 1))
    )
    (3-5): 3 x PFTB(
      (patch_embed): PatchEmbed()
      (patch_unembed): PatchUnEmbed()
      (residual_group): BasicBlock(
        dim=120, input_resolution=(64, 64), depth=6
        (layers): ModuleList(
          (0-5): 6 x PFTransformerLayer(
            (softmax): Softmax(dim=-1)
            (lrelu): LeakyReLU(negative_slope=0.01)
            (sigmoid): Sigmoid()
            (norm1): LayerNorm((120,), eps=1e-05, elementwise_affine=True)
            (norm2): LayerNorm((120,), eps=1e-05, elementwise_affine=True)
            (wqkv): Linear(in_features=120, out_features=360, bias=True)
            (v_LePE): dwconv(
              (depthwise_conv): Sequential(
                (0): Conv2d(120, 120, kernel_size=(7, 7), stride=(1, 1), padding=(3, 3), groups=120)
                (1): GELU(approximate='none')
              )
            )
            (attn_win): WindowAttention(
              dim=120, window_size=(32, 32), num_heads=5, qkv_bias=True
              (proj): Linear(in_features=120, out_features=120, bias=True)
              (softmax): Softmax(dim=-1)
            )
            (convffn): ConvFFN(
              (fc1): Linear(in_features=120, out_features=240, bias=True)
              (act): GELU(approximate='none')
              (dwconv): dwconv(
                (depthwise_conv): Sequential(
                  (0): Conv2d(240, 240, kernel_size=(7, 7), stride=(1, 1), padding=(3, 3), groups=240)
                  (1): GELU(approximate='none')
                )
              )
              (fc2): Linear(in_features=240, out_features=120, bias=True)
            )
          )
        )
      )
      (conv): Conv2d(120, 120, kernel_size=(3, 3), stride=(1, 1), padding=(1, 1))
    )
  )
  (norm): LayerNorm((120,), eps=1e-05, elementwise_affine=True)
  (conv_after_body): Conv2d(120, 120, kernel_size=(3, 3), stride=(1, 1), padding=(1, 1))
  (conv_before_upsample): Sequential(
    (0): Conv2d(120, 64, kernel_size=(3, 3), stride=(1, 1), padding=(1, 1))
    (1): LeakyReLU(negative_slope=0.01, inplace=True)
  )
  (upsample): Upsample(
    (0): Conv2d(64, 256, kernel_size=(3, 3), stride=(1, 1), padding=(1, 1))
    (1): PixelShuffle(upscale_factor=2)
  )
  (conv_last): Conv2d(64, 3, kernel_size=(3, 3), stride=(1, 1), padding=(1, 1))
)
2025-09-09 11:01:38,441 INFO: Loading PFT model from experiments/modelli_trainati/PFT_M_DIV2K_210000.pth, with param key: [params_ema].
2025-09-09 11:01:38,496 INFO: Model [PFTModel] is created.
2025-09-09 11:01:38,496 INFO: Testing MonashTest...
2025-09-09 11:13:53,084 INFO: Validation MonashTest
	 # psnr: 28.2346	Best: 28.2346 @ PFT_M_SRx2_DIV2K_testMonash iter
…
